…
M que es una variante del descenso de gradiente) y la función de pérdida (en este caso la binary crossentropy). . autoencoder = keras.Model(input_img, decoded) autoencoder.compile(optimizer=&#39;adam&#39;, loss=&#39;binary_crossentropy&#39;) . Con la siguiente instrucción podemos mostrar la arquitectura de una red de Keras. . autoencoder.summary() . Model: &#34;model&#34; _________________________________________________________________ Layer (type) Output Shape Param # ================================================================= input_1 (InputLayer) [(None, 28, 28, 1)] 0 conv2d (Conv2D) (None, 28, 28, 32) 320 max_pooling2d (MaxPooling2D (None, 14, 14, 32) 0 ) conv2d_1 (Conv2D) (None, 14, 14, 32) 9248 max_pooling2d_1 (MaxPooling (None, 7, 7, 32) 0 2D) conv2d_2 (Conv2D) (None, 7, 7, 32) 9248 up_sampling2d (UpSampling2D (None, 14, 14, 32) 0 ) conv2d_3 (Conv2D) (None, 14, 14, 32) 9248 up_sampling2d_1 (UpSampling (None, 28, 28, 32) 0 2D) conv2d_4 (Conv2D) (None, 28, 28, 1) 289 ================================================================= Total params: 28,353 Trainable params: 28,353 Non-trainable params: 0 _________________________________________________________________ . También puede ser útil visualizar dicha red. . from keras.utils.vis_utils import plot_model plot_model(autoencoder, to_file=&#39;autoencoder_plot.png&#39;, show_shapes=True, show_layer_names=True
…
layers.Dense(latent_dim, name=&quot;z_mean&quot;)(x) z_log_var = layers.Dense(latent_dim, name=&quot;z_log_var&quot;)(x) z = Sampling()([z_mean, z_log_var]) encoder = keras.Model(encoder_inputs, [z_mean, z_log_var, z], name=&quot;encoder&quot;) encoder.summary() . Model: &#34;encoder&#34; __________________________________________________________________________________________________ Layer (type) Output Shape Param # Connected to ================================================================================================== input_3 (InputLayer) [(None, 28, 28, 1)] 0 [] conv2d_10 (Conv2D) (None, 14, 14, 32) 320 [&#39;input_3[0][0]&#39;] conv2d_11 (Conv2D) (None, 7, 7, 64) 18496 [&#39;conv2d_10[0][0]&#39;] flatten (Flatten) (None, 3136) 0 [&#39;conv2d_11[0][0]&#39;] dense (Dense) (None, 16) 50192 [&#39;flatten[0][0]&#39;] z_mean (Dense) (None, 2) 34 [&#39;dense[0][0]&#39;] z_log_var (Dense) (None, 2) 34 [&#39;dense[0][0]&#39;] sampling (Sampling) (None, 2) 0 [&#39;z_mean[0][0]&#39;, &#39;z_log_var[0][0]&#39;] ================================================================================================== Total params: 69,076 Trainable params: 69,076 Non-trainable params: 0 __________________________________________________________________________________________________ . Decoder . Ahora podemos definir el decoder, utilizando una arquitectura simét
…
quot;, strides=2, padding=&quot;same&quot;)(x) x = layers.Conv2DTranspose(32, 3, activation=&quot;relu&quot;, strides=2, padding=&quot;same&quot;)(x) decoder_outputs = layers.Conv2DTranspose(1, 3, activation=&quot;sigmoid&quot;, padding=&quot;same&quot;)(x) decoder = keras.Model(latent_inputs, decoder_outputs, name=&quot;decoder&quot;) decoder.summary() . Model: &#34;decoder&#34; _________________________________________________________________ Layer (type) Output Shape Param # ================================================================= input_4 (InputLayer) [(None, 2)] 0 dense_1 (Dense) (None, 3136) 9408 reshape (Reshape) (None, 7, 7, 64) 0 conv2d_transpose (Conv2DTra (None, 14, 14, 64) 36928 nspose) conv2d_transpose_1 (Conv2DT (None, 28, 28, 32) 18464 ranspose) conv2d_transpose_2 (Conv2DT (None, 28, 28, 1) 289 ranspose) ================================================================= Total params: 65,089 Trainable params: 65,089 Non-trainable params: 0 _________________________________________________________________ . Por último vamos a definir un nuevo modelo que une nuestro encoder y decoder definidos anteriormente, y definimos nuestra función de pérdida que va a tener en cuenta la función de pérdi
…
